…
                                                                   lstm_1[28][0]                    
                                                                   lstm_1[28][2]                    
                                                                   reshape_1[30][0]                 
                                                                   lstm_1[29][0]                    
                                                                   lstm_1[29][2]                    
____________________________________________________________________________________________________
lambda_4 (Lambda)                (None, 78)            0           input_2[0][0]                    
____________________________________________________________________________________________________
lambda_5 (Lambda)                (None, 78)            0           input_2[0][0]                    
____________________________________________________________________________________________________
lambda_6 (Lambda)                (None, 78)            0           input_2[0][0]                    
____________________________________________________________________________________________________
lambda_7 (Lambda)                (None, 78)            0           input_2[0][0]                    
____________________________________________________________________________________________________
lambda_8 (Lambda)                (None, 78)            0           input_2[0][0]                    
____________________________________________________________________________________________________
lambda_9 (Lambda)                (None, 78)            0           input_2[0][0]                    
____________________________________________________________________________________________________
lambda_10 (Lambda)               (None, 78)            0           input_2[0][0]                    
____________________________________________________________________________________________________
lambda_11 (Lambda)               (None, 78)            0           input_2[0][0]                    
____________________________________________________________________________________________________
lambda_12 (Lambda)               (None, 78)            0           input_2[0][0]                    
____________________________________________________________________________________________________
lambda_13 (Lambda)               (None, 78)            0           input_2[0][0]                    
____________________________________________________________________________________________________
lambda_14 (Lambda)               (None, 78)            0           input_2[0][0]                    
____________________________________________________________________________________________________
lambda_15 (Lambda)               (None, 78)            0           input_2[0][0]                    
____________________________________________________________________________________________________
lambda_16 (Lambda)               (None, 78)            0           input_2[0][0]                    
____________________________________________________________________________________________________
lambda_17 (Lambda)               (None, 78)            0           input_2[0][0]                    
____________________________________________________________________________________________________
lambda_18 (Lambda)               (None, 78)            0           input_2[0][0]                    
____________________________________________________________________________________________________
lambda_19 (Lambda)               (None, 78)            0           input_2[0][0]                    
____________________________________________________________________________________________________
lambda_20 (Lambda)               (None, 78)            0           input_2[0][0]                    
____________________________________________________________________________________________________
lambda_21 (Lambda)               (None, 78)            0           input_2[0][0]                    
____________________________________________________________________________________________________
lambda_22 (Lambda)               (None, 78)            0           input_2[0][0]                    
____________________________________________________________________________________________________
lambda_23 (Lambda)               (None, 78)            0           input_2[0][0]                    
____________________________________________________________________________________________________
lambda_24 (Lambda)               (None, 78)            0           input_2[0][0]                    
____________________________________________________________________________________________________
lambda_25 (Lambda)               (None, 78)            0           input_2[0][0]                    
____________________________________________________________________________________________________
lambda_26 (Lambda)               (None, 78)            0           input_2[0][0]                    
____________________________________________________________________________________________________
lambda_27 (Lambda)               (None, 78)            0           input_2[0][0]                    
____________________________________________________________________________________________________
lambda_28 (Lambda)               (None, 78)            0           input_2[0][0]                    
____________________________________________________________________________________________________
lambda_29 (Lambda)               (None, 78)            0           input_2[0][0]                    
____________________________________________________________________________________________________
lambda_30 (Lambda)               (None, 78)            0           input_2[0][0]                    
____________________________________________________________________________________________________
lambda_31 (Lambda)               (None, 78)            0           input_2[0][0]                    
____________________________________________________________________________________________________
dense_1 (Dense)                  (None, 78)            5070        lstm_1[1][0]                     
                                                                   lstm_1[2][0]                     
                                                                   lstm_1[3][0]                     
                                                                   lstm_1[4][0]                     
                                                                   lstm_1[5][0]                     
…
                                                                   lstm_1[76][0]                    
                                                                   lstm_1[77][0]                    
                                                                   lstm_1[78][0]                    
                                                                   lstm_1[79][0]                    
                                                                   lstm_1[80][0]                    
____________________________________________________________________________________________________
lambda_32 (Lambda)               (None, 1, 78)         0           dense_1[31][0]                   
____________________________________________________________________________________________________
lambda_33 (Lambda)               (None, 1, 78)         0           dense_1[32][0]                   
____________________________________________________________________________________________________
lambda_34 (Lambda)               (None, 1, 78)         0           dense_1[33][0]                   
____________________________________________________________________________________________________
lambda_35 (Lambda)               (None, 1, 78)         0           dense_1[34][0]                   
____________________________________________________________________________________________________
lambda_36 (Lambda)               (None, 1, 78)         0           dense_1[35][0]                   
____________________________________________________________________________________________________
lambda_37 (Lambda)               (None, 1, 78)         0           dense_1[36][0]                   
____________________________________________________________________________________________________
lambda_38 (Lambda)               (None, 1, 78)         0           dense_1[37][0]                   
____________________________________________________________________________________________________
lambda_39 (Lambda)               (None, 1, 78)         0           dense_1[38][0]                   
____________________________________________________________________________________________________
lambda_40 (Lambda)               (None, 1, 78)         0           dense_1[39][0]                   
____________________________________________________________________________________________________
lambda_41 (Lambda)               (None, 1, 78)         0           dense_1[40][0]                   
____________________________________________________________________________________________________
lambda_42 (Lambda)               (None, 1, 78)         0           dense_1[41][0]                   
____________________________________________________________________________________________________
lambda_43 (Lambda)               (None, 1, 78)         0           dense_1[42][0]                   
____________________________________________________________________________________________________
lambda_44 (Lambda)               (None, 1, 78)         0           dense_1[43][0]                   
____________________________________________________________________________________________________
lambda_45 (Lambda)               (None, 1, 78)         0           dense_1[44][0]                   
____________________________________________________________________________________________________
lambda_46 (Lambda)               (None, 1, 78)         0           dense_1[45][0]                   
____________________________________________________________________________________________________
lambda_47 (Lambda)               (None, 1, 78)         0           dense_1[46][0]                   
____________________________________________________________________________________________________
lambda_48 (Lambda)               (None, 1, 78)         0           dense_1[47][0]                   
____________________________________________________________________________________________________
lambda_49 (Lambda)               (None, 1, 78)         0           dense_1[48][0]                   
____________________________________________________________________________________________________
lambda_50 (Lambda)               (None, 1, 78)         0           dense_1[49][0]                   
____________________________________________________________________________________________________
lambda_51 (Lambda)               (None, 1, 78)         0           dense_1[50][0]                   
____________________________________________________________________________________________________
lambda_52 (Lambda)               (None, 1, 78)         0           dense_1[51][0]                   
____________________________________________________________________________________________________
lambda_53 (Lambda)               (None, 1, 78)         0           dense_1[52][0]                   
____________________________________________________________________________________________________
lambda_54 (Lambda)               (None, 1, 78)         0           dense_1[53][0]                   
____________________________________________________________________________________________________
lambda_55 (Lambda)               (None, 1, 78)         0           dense_1[54][0]                   
____________________________________________________________________________________________________
lambda_56 (Lambda)               (None, 1, 78)         0           dense_1[55][0]                   
____________________________________________________________________________________________________
lambda_57 (Lambda)               (None, 1, 78)         0           dense_1[56][0]                   
____________________________________________________________________________________________________
lambda_58 (Lambda)               (None, 1, 78)         0           dense_1[57][0]                   
____________________________________________________________________________________________________
lambda_59 (Lambda)               (None, 1, 78)         0           dense_1[58][0]                   
____________________________________________________________________________________________________
lambda_60 (Lambda)               (None, 1, 78)         0           dense_1[59][0]                   
____________________________________________________________________________________________________
lambda_61 (Lambda)               (None, 1, 78)         0           dense_1[60][0]                   
____________________________________________________________________________________________________
lambda_62 (Lambda)               (None, 1, 78)         0           dense_1[61][0]                   
____________________________________________________________________________________________________
lambda_63 (Lambda)               (None, 1, 78)         0           dense_1[62][0]                   
____________________________________________________________________________________________________
lambda_64 (Lambda)               (None, 1, 78)         0           dense_1[63][0]                   
____________________________________________________________________________________________________
lambda_65 (Lambda)               (None, 1, 78)         0           dense_1[64][0]                   
____________________________________________________________________________________________________
lambda_66 (Lambda)               (None, 1, 78)         0           dense_1[65][0]                   
____________________________________________________________________________________________________
lambda_67 (Lambda)               (None, 1, 78)         0           dense_1[66][0]                   
____________________________________________________________________________________________________
lambda_68 (Lambda)               (None, 1, 78)         0           dense_1[67][0]                   
____________________________________________________________________________________________________
lambda_69 (Lambda)               (None, 1, 78)         0           dense_1[68][0]                   
____________________________________________________________________________________________________
lambda_70 (Lambda)               (None, 1, 78)         0           dense_1[69][0]                   
____________________________________________________________________________________________________
lambda_71 (Lambda)               (None, 1, 78)         0           dense_1[70][0]                   
____________________________________________________________________________________________________
lambda_72 (Lambda)               (None, 1, 78)         0           dense_1[71][0]                   
____________________________________________________________________________________________________
lambda_73 (Lambda)               (None, 1, 78)         0           dense_1[72][0]                   
____________________________________________________________________________________________________
lambda_74 (Lambda)               (None, 1, 78)         0           dense_1[73][0]                   
____________________________________________________________________________________________________
lambda_75 (Lambda)               (None, 1, 78)         0           dense_1[74][0]                   
____________________________________________________________________________________________________
lambda_76 (Lambda)               (None, 1, 78)         0           dense_1[75][0]                   
____________________________________________________________________________________________________
lambda_77 (Lambda)               (None, 1, 78)         0           dense_1[76][0]                   
____________________________________________________________________________________________________
lambda_78 (Lambda)               (None, 1, 78)         0           dense_1[77][0]                   
____________________________________________________________________________________________________
lambda_79 (Lambda)               (None, 1, 78)         0           dense_1[78][0]                   
____________________________________________________________________________________________________
lambda_80 (Lambda)               (None, 1, 78)         0           dense_1[79][0]                   
====================================================================================================
Total params: 41,678
Trainable params: 41,678
Non-trainable params: 0
____________________________________________________________________________________________________
Expected Output If you scroll to the bottom of the output, you'll see:

Total params: 41,678
…
